Raven/DataBase/Tasks.pth (torch, 4247 bytes, 6 tensors)

l1.weight f4 [8, 32]
0	0x3ef16bce	0.4715256
1	0x3df72b85	0.120688476
2	0x3f4f4c3b	0.80975693
3	0x3f39184e	0.7230271
4	0xbf12df9f	-0.5737247
5	0x3db04db4	0.08608571
6	0x3dab28ea	0.08357413
7	0xbf4e1b90	-0.8051081
8	0x3cba6aad	0.022755945
9	0x3dd80deb	0.1054953
10	0x3cceacd4	0.025228895
11	0x3ebf7ad4	0.37398398
12	0x3e0e5f16	0.1390346
13	0x3ee69146	0.4503271
14	0x3ebf77b6	0.3739602
15	0x3dd4af2f	0.10384976
16	0xbe1cfe3e	-0.1533136
17	0xbd95c623	-0.07313182
18	0xbf242265	-0.6411498
19	0x3f74f988	0.95693254
20	0x3f22edbd	0.6364401
21	0xbe1d903f	-0.15387057
22	0x3f339cf5	0.7016137
23	0x3f77cd04	0.96797204
24	0xbcf31a21	-0.029675545
25	0xbd3663cb	-0.044528764
26	0x3ebf9d90	0.37424898
27	0x3e380526	0.17970714
28	0x3e00a7a6	0.12563953
29	0x3f87fab6	1.0623386
30	0xbf1f2679	-0.6216808
31	0x3f286906	0.65785253
32	0xbd463b4d	-0.048396397
33	0xbe14403c	-0.14477628
34	0xbd148276	-0.03625723
35	0xbee99bf1	-0.45626786
36	0x3eb87e98	0.36034083
37	0xbd69e859	-0.05710635
38	0xbe6d5b57	-0.23179375
39	0x3f56221d	0.836458
40	0xbe41b7fb	-0.18917839
41	0xbe2d4fab	-0.16924922
42	0xbe87859e	-0.2646913
43	0x3f180d6a	0.5939547
44	0xbe19fdfb	-0.15038292
45	0xbe25d2b7	-0.16193663
46	0x3f180c0f	0.593934
47	0xbe248829	-0.16067566
48	0xbe22bec1	-0.1589308
49	0xbe15cb55	-0.14628346
50	0x3efd7852	0.4950586
51	0xbe61ef7e	-0.22064015
52	0xbe9ff8a0	-0.31244373
53	0x3f12bb75	0.57317287
54	0xbe8727b9	-0.26397493
55	0xbeba6504	-0.36405194
56	0xbd5a9346	-0.053363107
57	0xbdd91c92	-0.106011525
58	0x3f17fcb8	0.59369993
59	0xbe16fe95	-0.14745553
60	0x3d557caa	0.052120842
61	0x3f2b292a	0.66859686
62	0x3f44a797	0.7681822
63	0xbf804fdb	-1.002437
64	0x3f2ba627	0.67050403
65	0x3f1c2699	0.60996395
66	0x3f093cb9	0.5360828
67	0x3f3bba67	0.733313
68	0x3f02389b	0.50867623
69	0x3f25073e	0.64464176
70	0xbd6e5fa9	-0.058196697
71	0xbf005166	-0.50124204
72	0x3f2641d1	0.6494418
73	0x3f4c051b	0.7969529
74	0x3f0befc6	0.5466274
75	0xbdaaf13a	-0.083467916
76	0x3f3c124c	0.7346542
77	0x3e153873	0.14572315
78	0xbdaaf7a4	-0.08348015
79	0x3f39895d	0.72475225
80	0x3f3d48f1	0.73939425
81	0x3f2c9589	0.6741567
82	0x3f42c959	0.7608848
83	0x3f415e66	0.75534666
84	0x3f32703a	0.69702494
85	0xbe63c497	-0.22242962
86	0x3ee8986a	0.45428783
87	0x3f4df610	0.80453587
88	0xbdac1ef1	-0.08404339
89	0xbde88ea3	-0.11355331
90	0xbdaac163	-0.08337667
91	0x3f2a8a39	0.6661716
92	0x3eebfebe	0.4609279
93	0xbf2030bb	-0.62574357
94	0xbe9cc746	-0.30620784
95	0xbf06dead	-0.52683526
96	0x3e9cbdee	0.30613655
97	0x3ee65407	0.44985983
98	0x3f77649f	0.9663791
99	0x3ea3e5ab	0.3201116
100	0x3f2eff11	0.6835795
101	0x3e8ac111	0.27100423
102	0xbe62da67	-0.22153626
103	0xbf187e93	-0.59568137
104	0x3e2fdc79	0.17173947
105	0x3ef8a789	0.4856532
106	0x3eecd92f	0.46259448
107	0x3e2539e8	0.1613537
108	0x3e502fd0	0.20330739
109	0xbf250b45	-0.6447032
110	0x3e253942	0.16135123
111	0x3efd92f1	0.4952617
112	0x3edfa387	0.4367945
113	0x3eafd558	0.34342456
114	0x3f1eb27b	0.6199109
115	0x3e137651	0.14400603
116	0x3e1b0ba6	0.15141162
117	0x3e36a3bd	0.17835899
118	0x3d1aeddb	0.037824493
119	0x3e3a7384	0.18208128
120	0x3d91f628	0.07127029
121	0xbe34395f	-0.1760001
122	0x3e255e95	0.16149361
123	0x3e5652b5	0.20929988
124	0x3f1e378f	0.61803526
125	0xbf251517	-0.64485306
126	0x3eef385f	0.46722695
127	0xbe8e4ab1	-0.2779136
128	0x3f0cdba1	0.5502263
129	0x3ebad67c	0.36491764
130	0x3f854f17	1.0414761
131	0x3f37fffc	0.71874976
132	0x3f3a48b0	0.7276716
133	0x3f08bc72	0.53412545
134	0xbe7eb417	-0.24873386
135	0xbf28c63d	-0.6592749
136	0x3ef772f8	0.48329902
137	0x3e9fa0b2	0.31177288
138	0x3eb45ab4	0.3522545
139	0x3e848f2f	0.2589049
140	0x3e97d3f4	0.29653895
141	0xbf33a19b	-0.70168465
142	0x3e849116	0.25891942
143	0x3f1e77b6	0.61901414
144	0x3ec97f49	0.39354923
145	0x3f0e3725	0.55552894
146	0x3f24b89b	0.64344186
147	0x3f0dde83	0.5541765
148	0x3f3c6915	0.7359784
149	0xbd99e173	-0.07513704
150	0x3f152e81	0.58274084
151	0x3f386cff	0.72041315
152	0xbe9ad657	-0.30241653
153	0xbe5a90e5	-0.21344335
154	0x3e849964	0.25898278
155	0x3ea92016	0.33032292
156	0x3f01c996	0.5069822
157	0xbf31e066	-0.6948303
158	0xbf21e6c1	-0.6324273
159	0x3f6b8deb	0.92013425
160	0xbd496c99	-0.049175832
161	0xbd60502d	-0.05476396
162	0x3f29334b	0.6609389
163	0xbea79929	-0.3273404
164	0xbec207ba	-0.3789652
165	0xbd0d8887	-0.03455403
166	0xbedd9237	-0.43275616
167	0x3ecbd3dc	0.39810073
168	0xbc0c543c	-0.008565005
169	0xbd41c3c0	-0.047305822
170	0xbe162fd8	-0.14666688
171	0x3ef070b1	0.46960977
172	0xbe093c13	-0.13401823
173	0xbf704fc1	-0.93871695
174	0x3ef070bb	0.46961007
175	0xbe414d2a	-0.18877092
176	0xbd97a10a	-0.07403763
177	0xbdc9fb48	-0.09862381
178	0xbf0f4d00	-0.5597687
179	0xbde06583	-0.10956862
180	0xbd92dbdb	-0.0717084
181	0x3d98292d	0.07429729
182	0xbcb4511b	-0.02201133
183	0xbeb02059	-0.3439968
184	0xbe7e1dd5	-0.24816068
185	0xbed4586f	-0.4147372
186	0x3ef070a9	0.46960953
187	0xbe158fca	-0.14605632
188	0xbbdf4d93	-0.0068146675
189	0x3f8d919c	1.1060061
190	0xbf437381	-0.7634812
191	0x3f59bb63	0.85051554
192	0xbdc038d9	-0.09385843
193	0x3db7b109	0.08969314
194	0x3f87a596	1.0597408
195	0xbe78617f	-0.24255942
196	0x3f5509df	0.8321819
197	0x3e9e5498	0.30923915
198	0xbdb90ad2	-0.09035267
199	0x3f9d1d5a	1.2274582
200	0x3d1ea3e8	0.038730532
201	0x3e2171d3	0.15766077
202	0x3e217cc6	0.15770254
203	0x3effa996	0.4993407
204	0x3e35de92	0.17760685
205	0xbf2d2748	-0.67638063
206	0x3effb180	0.4994011
207	0x3e133988	0.14377415
208	0x3d87f772	0.06638993
209	0x3e71cd31	0.2361343
210	0x3f17c7bd	0.5928915
211	0xbe3592dd	-0.17731805
212	0xbe288c4f	-0.16459773
213	0x3eef00c3	0.4668027
214	0xbd90b8ae	-0.07066475
215	0xbe827b08	-0.2548449
216	0xbe252ce9	-0.16130413
217	0xbdad16c2	-0.08451606
218	0x3eff9e16	0.49925297
219	0x3e7f74ba	0.24946871
220	0xbdddf7bc	-0.10838267
221	0xbe1b44bc	-0.15162939
222	0x3f3ce156	0.73781335
223	0xbf6b2e41	-0.9186745
224	0xbe12078a	-0.14260688
225	0x3f17c9e8	0.5929246
226	0xbf6e840c	-0.9317024
227	0xbec534f4	-0.38516963
228	0x3c4ab595	0.012372394
229	0x3eb1ea16	0.34748906
230	0x3f7774e3	0.9666273
231	0xbf72ade5	-0.9479659
232	0x3ebd53c1	0.36977962
233	0x3ee5fd7e	0.44919962
234	0x3f1eddaf	0.6205701
235	0x3e8695c4	0.26286137
236	0x3f1dd938	0.61659575
237	0xbf05ffc4	-0.5234339
238	0x3e869a14	0.26289427
239	0x3ec3749b	0.381749
240	0x3f11f569	0.5701509
241	0x3eca88e8	0.39557576
242	0xbe244cf4	-0.1604498
243	0xbea3fff7	-0.32031223
244	0xbe9016ed	-0.2814249
245	0x3f0447b6	0.5167192
246	0xbe0dc020	-0.13842821
247	0xbed929fc	-0.42414844
248	0x3f6b6c79	0.9196239
249	0x3f5a151a	0.8518845
250	0x3e865edd	0.2624425
251	0x3edfb154	0.43689978
252	0x3ea98c4c	0.3311485
253	0x3e2d7a0f	0.16941093
254	0x3f677e04	0.9042666
255	0x3f81c260	1.0137444

l1.bias f4 [8]
0	0x3f571a42	0.8402444
1	0x3f2d3288	0.6765523
2	0x3f358f6a	0.7092196
3	0x3ef77683	0.48332605
4	0x3ee2965e	0.44255346
5	0x3ef029d7	0.4690692
6	0x3ed6c2b5	0.41945425
7	0x3f349dd7	0.70553344

l2.weight f4 [8, 8]
0	0x3f9cd691	1.225298
1	0x3d9abe41	0.07555819
2	0x3f8fc7e7	1.123288
3	0x3f481310	0.7815409
4	0x3f28ddc2	0.65963376
5	0xbeff791f	-0.49897096
6	0xbe12e676	-0.14345726
7	0xbf3342e3	-0.70023936
8	0x3d56644b	0.05234174
9	0x3f746fbc	0.95482993
10	0xbf8105b2	-1.0079863
11	0xbf6b3f5f	-0.9189357
12	0xbf2221d5	-0.63332874
13	0x3f8e67da	1.1125443
14	0x3f29cf20	0.6633167
15	0xbf72f6f5	-0.94908077
16	0x3e61d837	0.22055136
17	0x3fac1168	1.3442812
18	0xbf1be06d	-0.6088932
19	0x3ea5e572	0.32401615
20	0x3e4b7481	0.19868661
21	0x3fba1dde	1.4540365
22	0x3fba92fe	1.4576108
23	0xbe46a017	-0.19397007
24	0xbf7f1694	-0.99643826
25	0x3f7b9aa3	0.9828283
26	0x3f2269f4	0.6344292
27	0x3f58548a	0.84503996
28	0x3e81eb0a	0.25374633
29	0xbf6c14ed	-0.9221943
30	0x3f949e8f	1.1610888
31	0x3fa29326	1.2701156
32	0x3f6fc1ac	0.93654895
33	0xbe9befb1	-0.30456308
34	0x3f97d43f	1.1861647
35	0x3f4ce5b0	0.80037975
36	0x3f0b398e	0.54384696
37	0xbec8025d	-0.39064303
38	0x3f29607e	0.6616286
39	0xbf993eb4	-1.197226
40	0x3dc82e45	0.0977445
41	0xbd9be604	-0.076122314
42	0xbd12a404	-0.03580095
43	0xbe023026	-0.1271368
44	0x3d6ef941	0.058343176
45	0x3d295b89	0.04134706
46	0xbdd2f038	-0.10299724
47	0x3cb77bb9	0.022397863
48	0x3ef9d428	0.48794675
49	0x3fa77a57	1.308421
50	0xbe8e3c87	-0.27780554
51	0xbf241b4c	-0.6410415
52	0xbfaf5179	-1.3696738
53	0xbeb5f7c5	-0.35540596
54	0x3ec4d444	0.38443196
55	0x3ee82f1e	0.45348448
56	0x3fc2d7bc	1.5222087
57	0xbf065d87	-0.5248646
58	0x3e02e729	0.12783493
59	0xbdc94ae7	-0.098287396
60	0x3f4255bb	0.75912064
61	0x3f9dcd56	1.2328289
62	0xbf362672	-0.7115241
63	0x3f869467	1.0514039

l2.bias f4 [8]
0	0x3f3a98e4	0.7288954
1	0xbdda04cc	-0.10645446
2	0x3db2a898	0.08723563
3	0xbdb70a16	-0.089374706
4	0x3ddd9786	0.108199164
5	0xbea910d1	-0.33020642
6	0x3f75029d	0.9570711
7	0x3e97ff81	0.29687122

l3.weight f4 [10, 8]
0	0x3eaee4ae	0.34158844
1	0xbed5aab9	-0.41731814
2	0xbf88a665	-1.067578
3	0x3e22ee5b	0.15911238
4	0x3e642efb	0.22283547
5	0xbe8707f4	-0.26373255
6	0xbf509a16	-0.81485116
7	0xbeaea69b	-0.34111485
8	0xbf939a78	-1.1531515
9	0xbf049410	-0.51788425
10	0xbf8d15d4	-1.1022286
11	0x3edd6ea1	0.43248466
12	0xbf8cb098	-1.0991392
13	0xbc14fc47	-0.009093351
14	0x3f06e224	0.52688813
15	0x3f15e346	0.58549917
16	0x3e358c32	0.17729262
17	0xbf6e5a19	-0.9310623
18	0x3f2f81fa	0.68557703
19	0xbf648929	-0.8927179
20	0x3e3d7c2e	0.18504402
21	0x3ddbcadd	0.107320525
22	0xbfa34200	-1.2754517
23	0xbdc5d9b5	-0.09660665
24	0x3eae5cde	0.34055227
25	0xbef84792	-0.48492104
26	0x3e8ab290	0.27089357
27	0x3f33cc6c	0.702338
28	0xbf2d89ab	-0.6778819
29	0x3e6c6368	0.23084795
30	0xbfacc9cb	-1.3499082
31	0xbfb6719f	-1.4253424
32	0xbf68b2bb	-0.9089772
33	0x3f624884	0.883919
34	0x3f06b790	0.52623844
35	0xbec1d00d	-0.37854043
36	0xbf327b5f	-0.697195
37	0x3e50d18f	0.2039244
38	0x3e990ceb	0.29892668
39	0xbfb1a3cc	-1.3878112
40	0x3f0fc20b	0.5615546
41	0xbfdd1e13	-1.7274803
42	0xbeb012f0	-0.34389448
43	0xbf98589a	-1.1902039
44	0xbeae14bb	-0.3400019
45	0xbe1a9dc4	-0.15099245
46	0x3f9a766f	1.2067393
47	0xbe0c6b5d	-0.13712831
48	0xbe94f79c	-0.2909516
49	0x3eb67cea	0.35642177
50	0x3eca794e	0.39545673
51	0xbfc79364	-1.5591855
52	0xbfde7763	-1.7380184
53	0xbc8d5633	-0.017253017
54	0x3eef074d	0.46685258
55	0x3e23da85	0.16001327
56	0xbf2a71af	-0.6657972
57	0xbfb7f89e	-1.4372747
58	0x3ea7f02e	0.3280043
59	0x3f2951bb	0.66140336
60	0xbfcc5ca7	-1.5965775
61	0xbb0978cd	-0.0020976544
62	0x3f30b157	0.690206
63	0xbf947f2b	-1.1601309
64	0xbdc2007e	-0.0947275
65	0xbf8b20c7	-1.0869378
66	0x3ec80a3c	0.39070308
67	0xbf97a273	-1.184645
68	0xbfab1ff7	-1.336913
69	0xbe5ab2f0	-0.21357322
70	0xbfc0d7f1	-1.50659
71	0x3f6be132	0.92140496
72	0x3f164c76	0.5871042
73	0xbf1d0d85	-0.61348754
74	0xbf979af5	-1.1844164
75	0xbfca6ea8	-1.581502
76	0x3f1555df	0.58334154
77	0xbc331ac2	-0.0109316725
78	0xbfa1d20e	-1.2642229
79	0x3e5bc824	0.21463066

l3.bias f4 [10]
0	0xbe85d34a	-0.26137763
1	0xbe0da978	-0.13834178
2	0xbed05245	-0.40687767
3	0xbe451e91	-0.19249941
4	0x3df946ff	0.121717446
5	0x3f5d8414	0.8652966
6	0xbf0403c1	-0.5156823
7	0xbdbe3daa	-0.09289105
8	0x3e58192f	0.21103357
9	0x3ca92c28	0.020650938
